checkpoint.pth (torch_old, 21027 bytes, 6 tensors)

fc1.weight f4 [64, 8]
00000000: ad03 5c3f 2df7 4dbf c211 80bf e868 263f
00000010: 2251 87be c641 cd3e 8f72 423e 448a 173f
00000020: ce7b e1bd c01e 0f3f 4343 4bbf a6f2 903e
00000030: 65ad c03e fbba aabe ab7b 41bf 100b 2dbe
00000040: da74 93bc c2fe 723d f109 8e3f b9b2 20bf
00000050: a60a 2dbf fadb 943f 0a72 283e d7a8 193f
00000060: 1bdc 71bd 27d9 85bf 6641 0c3f c652 bdbe
00000070: 6125 9bbf cb5e 743e 8e7e d6bd 7851 033f
00000080: 15b2 a2bf 164a 87bf 7521 78be 4cd0 3fbf
00000090: 6181 f6be 34c6 d1bc c5dc d93d 0d98 383e
000000a0: e7ef ea3d 85ba 0abe 58c8 7cbe 0d7c febe
000000b0: c733 31bf 599f 89be d555 053f b26a 113f
000000c0: a515 383e b138 3fbe 642d f73e f60b 0ebf
000000d0: 28a1 e7bd ed27 803f b54b 89be d163 2abf
000000e0: f798 853e 6f42 15c0 0f21 913e 882f 9cbf
000000f0: a5f3 0abe e048 01bd 0258 08be 2ce6 aebe
00000100: 965f ac3e a2fa cbbd aeb5 5c3f 9038 863d
00000110: 84a6 0fbf fbc1 513e 84f1 bbbe e935 2f3e
00000120: 06c9 353e fb9a 9e3d bde3 58bf d961 4f3f
00000130: 96c9 19bf 9343 47bf f25a a2bf fe4b 2cbf
00000140: 691f 18be afa2 f13e 4e30 473f 72eb c8bf
00000150: 7ce7 5d3e dce2 993f 44d9 5e3e eeca 88bd
00000160: 61ac 9a3e 6572 623e 0447 f93d d94c a4be
00000170: 58bf 8bbf d273 a6be 094d 3abf bddd 893d
00000180: 7e71 ddbe 7270 ec3e 0841 d1be 55b7 b6be
00000190: b7e8 4fbf 2568 643f 07bf 3b3d 987b 533f
000001a0: ac03 34bf f85f bbbe 44f9 28bf af36 4cbf
000001b0: 3a28 a83e 0cf3 f43e d91f a73e 97ea 2e3d
000001c0: 3ae6 6bbe 755b a03e cbca 8bbe cd53 abbf
000001d0: a52d a0be 0c8b c63d eb3f 96be 7bef ef3d
000001e0: c27b 6f3e 10e0 483f 1983 963e 4bd3 b0bf
000001f0: 134e ebbd a386 0b3f af7e dfbe 9e6c 81be
00000200: 1b8a 033f 86f6 b1bf 54ed 233e 9fa5 3dbf
00000210: 40b4 d2be 5bd9 babd aa62 b13e 996f 293e
00000220: bb09 113e 08e2 f73e 2009 953f ff99 953d
00000230: 99c0 54be dbce eb3e 3b6f 163e 9622 f7be
00000240: 2fa4 8abe b718 62be 259b 19bf 3da9 a3be
00000250: 1487 683f 91bf bebe a31a 97bf bd99 23bf
00000260: a1fb b3be 1378 713f 9f1d 7c3f 235e efbf
00000270: 780f f3be b54f 8bbc 01f2 453f 9e9a 60bf
00000280: 454c 8ebf ca9e acbe 680b 4fbf 0378 14bf
00000290: 4abd c43e 899a 8c3d 14f4 7a3d 30c9 3dbe
000002a0: 3a52 43bf 5e8d b0be 15da 60be aff4 32bf
000002b0: 1e50 773f f1fb 633d 184b 3d3e 013b cabe
000002c0: c9cc b63d a0b6 09c0 4fcc 523f 24b7 88bf
000002d0: fb14 c0be c7ec 89be e0a3 533e 25b5 853e
000002e0: b940 ad3f a324 0bbf be41 a53a 7e15 b2be
000002f0: 834f d9be bf25 6f3d 5402 963e 9915 9e3e
00000300: 41ff 89bf 85e7 bcbd 5d8d 30bf 1522 1bbf
00000310: 62aa 49be dce2 20be 2c6a 063e 17cb bc3c
00000320: 5c1c b43e 3483 1cbf 9b43 b3be d76a 953e
00000330: 052b 71bd 2546 eb3d a142 543c 6855 183f
00000340: 4f99 203e 3b38 2b3e b201 e03d 1caa 3dbd
00000350: ef85 2bbe d9df 4fbf e341 7abf ae79 77bd
00000360: 5736 463f 602a 28c0 b4ea 6f3e 95b2 a2bf
00000370: a7a5 453e ca28 b93c 37c5 a83c 2f37 9e3d
00000380: 6e28 813d 7cb6 5f3f 0ebb 41c0 3e5b fe3d
00000390: b83b d0bc 2496 ad3d e03a 98be 3672 933d
000003a0: fcc7 1dbf d70b ef3e 101b b83f 8e5e 89bf
000003b0: e6c0 09c0 9d32 69be 0bc7 a2be 2a60 26bf
000003c0: b3a3 19be 232a 9a3f b697 eb3e 4805 c73e
000003d0: 1712 e43f bb38 86bf 7d27 fd3e 83db 65be
000003e0: 1f2c 20bf 1419 713f 72a9 b33d fc2d 823f
000003f0: fbe3 cd3e 4228 843c 3118 8d3e f909 05be
0.8594311 -0.80455285 -1.0005419 0.65003824 -0.26429087 0.40089244 0.18989013 0.5919535
-0.11009942 0.55906296 -0.7939951 0.28310126 0.3763229 -0.3334578 -0.7557933 -0.16898751
-0.018000055 0.059324987 1.1096784 -0.6277271 -0.67594373 1.1629632 0.16449752 0.60023254
-0.0590478 -1.0456895 0.5478729 -0.36977214 -1.2120782 0.23864286 -0.10473357 0.51296186
-1.2710596 -1.0569484 -0.24231513 -0.7492721 -0.48145583 -0.025607206 0.106378116 0.18026753
0.11471539 -0.13547714 -0.246858 -0.49704018 -0.6921963 -0.26879385 0.52084094 0.5680343
0.17977007 -0.1867397 0.48276818 -0.55487 -0.11310035 1.0012184 -0.26815572 -0.6655856
0.26093265 -2.3321798 0.28345534 -1.2202005 -0.13569506 -0.03156364 -0.13314822 -0.34159982
0.33666676 -0.09959914 0.8621472 0.06553757 -0.5611346 0.20484154 -0.367077 0.17110409
0.17752466 0.07744404 -0.847225 0.8100868 -0.6007322 -0.77837485 -1.2684004 -0.67303455
-0.14855732 0.4719443 0.7780808 -1.5696852 0.21670336 1.2022357 0.21762568 -0.06679331
0.3020964 0.2211395 0.12171748 -0.3208988 -1.0917768 -0.3251024 -0.72773796 0.06731746
-0.4325065 0.4617954 -0.40869927 -0.35686746 -0.8121447 0.8922141 0.045836475 0.82610464
-0.703181 -0.36596656 -0.6600535 -0.7977094 0.3284319 0.4784168 0.32641485 0.04270419
-0.23037043 0.31319776 -0.27303156 -1.3384949 -0.31284824 0.0969449 -0.2934564 0.11715599
0.23387054 0.7846689 0.29396895 -1.3814481 -0.11489501 0.54502314 -0.4365134 -0.2527818
0.5138261 -1.3903358 0.16008502 -0.7408084 -0.41153145 -0.091234885 0.34645587 0.16546477
0.14163868 0.48414636 1.164341 0.07304763 -0.20776595 0.46056256 0.14690869 -0.48268574
-0.27078387 -0.2207974 -0.60002357 -0.31965056 0.9083111 -0.3725553 -1.1805004 -0.6390646
-0.35152915 0.94323844 0.984827 -1.8700603 -0.4747274 -0.01700578 0.77322394 -0.8773593
-1.1117026 -0.33714896 -0.8087678 -0.57995623 0.38425666 0.06865413 0.061267927 -0.18533778
-0.7629734 -0.34482855 -0.21958192 -0.6990461 0.96606624 0.055660192 0.18485677 -0.3949814
0.089257784 -2.1517715 0.82343 -1.068089 -0.37516007 -0.2693846 0.20667982 0.26114765
1.3535377 -0.5435278 0.0012608094 -0.34782022 -0.42443475 0.058385607 0.2929865 0.30875853
-1.0781022 -0.09223846 -0.68965703 -0.6059888 -0.19693902 -0.1571154 0.13126439 0.02304606
0.35177886 -0.611377 -0.35012516 0.29183075 -0.058878917 0.114879884 0.012955339 0.5950532
0.15683483 0.16720669 0.10937823 -0.046304807 -0.1675031 -0.8120094 -0.97756785 -0.060418777
0.77426666 -2.6275864 0.23429376 -1.2710749 0.19301473 0.022602458 0.020601852 0.07725369
0.063065395 0.87387824 -3.027042 0.12419747 -0.025419101 0.08475903 -0.29732418 0.071995184
-0.61633277 0.4668872 1.4383259 -1.0731981 -2.1523986 -0.22773214 -0.31792483 -0.64990485
-0.15003853 1.2044109 0.46014184 0.38871217 1.781802 -1.0486063 0.4944419 -0.22447018
-0.62567323 0.9417889 0.087725535 1.0170283 0.40212998 0.016132478 0.2755752 -0.12992086

fc1.bias f4 [64]
00000000: 4c26 bcbe 0fa3 51bf ca17 fd3d 15bd d1be
00000010: ad1e 95be a96e 66be c081 33be 0c90 40be
00000020: 2946 723e 67ac 853e 9c36 7d3e 5d47 41be
00000030: 631b b83d efd5 edbe d10f e93e 6f01 2dbe
00000040: d834 64be abdd 38bf f5e6 9a3e 54ab 213f
00000050: 9110 aebe 8d4c c5be f1c2 ecbe 6cc2 b7be
00000060: d4f1 40be 7e00 9fbe 712a cebd 4ec7 afbd
00000070: 6539 5a3e 746f ca3e ed3c 9ebd 32a4 683e
00000080: 7e97 2c3e 207b af3e 0c59 44bf 2c8b a73e
00000090: c0b4 37bf 77cc 6c3e 97be abbe dffa d4be
000000a0: 57fe cc3e cf8d 39be 3597 053e 9a8c 88bc
000000b0: 04c8 2ebf d110 b0be 903f 7a3f 6afd 4d3c
000000c0: c00c 143f d15a f1be 6f20 013f ab93 e53e
000000d0: 020b 593e 19ce 66bd 40c7 52bf e4e5 753e
000000e0: a2ba 3f3f 0b4e 113f df4c e43c 55a7 1a3f
000000f0: e601 b3be 98d9 babe 8aed 7a3f 1f99 d33e
-0.36747968 -0.8188943 0.12358053 -0.4096457 -0.29124966 -0.22503151 -0.17529964 -0.1880495
0.23659576 0.26108095 0.24727863 -0.18874879 0.089895986 -0.4645228 0.4551988 -0.16895078
-0.22285783 -0.7221324 0.3025433 0.6315205 -0.33997014 -0.38534966 -0.46242478 -0.3589052
-0.1884225 -0.31055063 -0.10066689 -0.08582936 0.21310957 0.39538157 -0.077264644 0.22718886
0.16854665 0.34273624 -0.76698375 0.32723367 -0.7176018 0.23124872 -0.33543846 -0.4159765
0.40037796 -0.18120502 0.13045962 -0.016668607 -0.6827395 -0.3438783 0.9775324 0.012572626
0.57831955 -0.471396 0.50440115 0.44839224 0.21195605 -0.056348894 -0.8233528 0.24013478
0.74894154 0.5675971 0.027868686 0.6041158 -0.34962386 -0.36494136 0.98018706 0.4132776

fc2.weight f4 [64, 64]
00000000: dac1 af3d f348 763f f83c 03be 167d 823f
00000010: 5d67 cc3e 6e14 3c3f 5853 2c3e 4dae 873f
00000020: 37bd 7a3e 8009 273f c420 e9bc 6408 ae3d
00000030: c795 57bc bc96 063f a40e 8d3d fd83 c0bd
00000040: 5422 583f b93e 503e d944 b53e 21b9 a73e
00000050: fe78 393f fec2 583f 8ba5 ad3f f0d9 503f
00000060: 9bc2 ab3e d9be 88be 254e 203f b200 743f
00000070: bd6e 093e 8f9f 7f3d 1ae0 00bf 0a35 a73e
00000080: 155d b7bd 2aa5 21bd ebfc ba3f 0ca2 0bbe
00000090: f81e 393f 35a1 193f 309d 353d ad3f b33f
000000a0: 1421 f73c 2bb3 133f e543 203f 2f85 05c0
000000b0: 1ed2 a93e 1e01 5e3f ec37 b03c a422 f1be
000000c0: d2e3 533f 7627 303f 5c05 f23e f5fe 80bc
000000d0: fb2a 293c 0acc c53e 8e09 683f ec47 21bf
000000e0: 3e78 90bd e281 b13d e6b6 82bf 76ea cb3e
000000f0: c519 4f3e 72cb 123f 1c4d 80bf e1ad cc3e
00000100: 6d27 c1bd d309 2c3c b5c3 9b3c 0053 93bc
00000110: 0bb9 cfbd 3e02 ca3d 86ac b4bd 2671 a73d
00000120: 8c25 f8bd a941 38bd b79c 1c3d f71f 8abd
00000130: aa8d ab3d 9f30 d8bd 056b 07be 42fc 91bd
00000140: 105f af3b c13d c83d 59ef 98bd 7c1d 913c
00000150: 0a95 41bd 5c60 3cbd bb78 9d3d aabf f4bd
00000160: 9650 efbb 11e1 c73d 53a0 cfbc 7d95 9a3d
00000170: 18a6 eebc 05bd 933d d6f0 09be c2ad e3bc
00000180: a4de 2cbd 184b 953c d5ea 203d be01 a53d
00000190: 1a93 efbc 9a0b 11bd ca4f af3d 2ba2 47bd
000001a0: 3746 b63d 8400 d5bd d81a 08bd d56d a4bc
000001b0: 167e 213d 76d0 8d3d 3441 0ebd e89a 06be
000001c0: 5497 403d 8617 c33c 88ab 4d3d b319 c8bd
000001d0: aec2 a43d 8155 bf3d c8f1 00bc 3972 07be
000001e0: 59b2 873d b8bb e6bd d5c3 543b 125d 1abc
000001f0: 5c57 97bd b046 323d ad70 01be a9c0 393b
00000200: f54b 39be 9787 4f3f 2898 113e c601 603f
00000210: 7e6f 1a3f 28dd f13e ac7a 6e3e 9471 813f
00000220: b9c0 8b3e bcf8 823e e47c dc3d ae8d a13e
00000230: 9220 813e 4dd1 313f b731 853d d15d 6dbd
00000240: 598d 123f 9b95 d03e 540d 593d d842 793e
00000250: 64c5 893f 9a7f 1e3f 589b 833f 3801 613e
00000260: 8093 463f 0a93 9cbe 3afd 513f 72ec 053f
00000270: 2fb9 6dbe a127 6c3e 4a85 46bf 9a2b b03e
00000280: 0971 8abe ba2d a73d de52 ce3f 8d2c acbd
00000290: 9eb5 083f 96b6 033f ccf7 ca3d 949b 903f
000002a0: 6ea6 4e3d fd09 193f 5df1 be3e c663 bfbf
000002b0: 4238 9f3e e5ff fb3e 570f f4be cdaa b8be
000002c0: 6263 2c3f 0ca6 903f 4945 ab3e 758b c6bd
000002d0: 4f19 27be 8a6e e63e eea2 563f f1f6 35bf
000002e0: 8010 a6be 8189 b4bd 084f a0bf 697c 173f
000002f0: d03b aabc fe4d 613e f2a7 5dbf 4429 9a3e
00000300: 2c55 b33d 1fee 893f 919f 633e 1895 f93e
00000310: 3ef3 8b3f ee88 a73e 4e94 c03e 1d3e 993f
00000320: bff5 f03e eaf6 053e 996a 9a3c 1b04 b13e
00000330: f245 90bd add9 493f 7d15 263e 9415 48bf
00000340: 462a ac3e 2c8b 083f eee0 2b3e a9db d33d
00000350: 2728 883f 61fd ed3e 1bab 703f f467 0d3f
00000360: 84db 973f 3529 9d3e 5177 eb3e 3a13 853f
00000370: 74e8 0a3f 7157 d5be e547 01bf c3be 703e
00000380: e13e d73e 8c62 dd3d 9e9e ab3f 4a0a 18be
00000390: 317e 223f 6beb 1f3f 0690 fe3d 569d 913f
000003a0: cdd0 f93d af04 a53e bc45 7a3e 97f5 d2be
000003b0: 8242 243f 18e2 a13e 806c 67be 1696 c63d
000003c0: 887f 9c3e 847e 9f3f af2d 0a3f 3cdd 9cbd
000003d0: 8054 50bd 2dbb 573f b6b0 853f 9300 0abf
000003e0: 10ce cfbe 5620 7c3c 945e 1dbf 3152 b53e
000003f0: a9c5 753e e315 c43e 50d8 d5be d9d1 d73d
0.08581896 0.9620506 -0.12816226 1.0194423 0.3992261 0.73468673 0.16828668 1.0600067
0.24486242 0.6524887 -0.028458007 0.08497694 -0.013158268 0.5257375 0.06887558 -0.09400175
0.8442738 0.20336427 0.3540409 0.3275843 0.72450244 0.84672534 1.3566145 0.81582546
0.3354691 -0.26708105 0.6261924 0.9531356 0.1342115 0.062408026 -0.5034195 0.32657653
-0.08953301 -0.039464153 1.4608434 -0.13636035 0.7231288 0.6001161 0.04433936 1.4003807
0.03016714 0.57695264 0.626036 -2.086254 0.3316812 0.86720455 0.02151104 -0.4709674
0.827695 0.6881021 0.47269714 -0.015746573 0.010325189 0.38632232 0.9063958 -0.6300037
-0.070541844 0.08667351 -1.0212066 0.39827317 0.20224674 0.5734168 -1.0023532 0.3997641
-0.09431348 0.010500389 0.019014219 -0.017983913 -0.10142716 0.09863709 -0.08821969 0.08175878
-0.121165365 -0.044984493 0.038235392 -0.06744378 0.0837663 -0.10556149 -0.13224418 -0.071281925
0.0053519085 0.097774036 -0.07467527 0.017714255 -0.047261275 -0.045990333 0.07689043 -0.119506195
-0.0073033078 0.09759725 -0.025345003 0.07548044 -0.029131934 0.07213787 -0.13470778 -0.027792815
-0.042204514 0.018224284 0.039286453 0.08056973 -0.029244948 -0.035411455 0.085601404 -0.04873864
0.08900111 -0.10400489 -0.033228725 -0.020071903 0.039426886 0.069245264 -0.03473015 -0.1314503
0.047019318 0.023814928 0.050212413 -0.09770527 0.08044945 0.093424805 -0.007870145 -0.13227166
0.06625814 -0.11266273 0.0032465358 -0.009421604 -0.07389709 0.043524444 -0.12640639 0.0028343594
-0.18095382 0.8106627 0.14218199 0.87502706 0.60326374 0.4723904 0.23288983 1.0112786
0.27295473 0.25580394 0.107660085 0.31553406 0.25220162 0.6945999 0.06503623 -0.0579508
0.5724693 0.4073914 0.052991226 0.24341905 1.0763364 0.61913455 1.0281782 0.21973121
0.7756882 -0.30580932 0.8202702 0.5231391 -0.23215173 0.23061992 -0.7754713 0.34408265
-0.27039364 0.081630185 1.6119039 -0.08406935 0.53402126 0.5145048 0.09910545 1.1297479
0.05045169 0.59780866 0.3729352 -1.4952323 0.3109761 0.4921867 -0.47667953 -0.3606781
0.67339146 1.1300673 0.33451298 -0.09694568 -0.16318248 0.4500621 0.8384236 -0.7107993
-0.32434464 -0.08815289 -1.2524118 0.5917421 -0.020780474 0.22002408 -0.8658439 0.30109608
0.087564796 1.0775794 0.22228839 0.48746562 1.0933607 0.32721657 0.37613147 1.197208
0.4706249 0.13082471 0.018849658 0.34573445 -0.07044591 0.7884777 0.16219135 -0.78157926
0.33626002 0.5333736 0.16785023 0.10344631 1.0637254 0.46482375 0.94011086 0.55236745
1.1863866 0.306955 0.4598947 1.0396492 0.54260945 -0.41668275 -0.5050033 0.2351027
0.4204016 0.10809812 1.3407781 -0.14847675 0.634738 0.62468594 0.12429814 1.137614
0.12198029 0.32230136 0.24440664 -0.41202995 0.6416398 0.31617808 -0.22599983 0.09696595
0.3056605 1.2460485 0.5397596 -0.076593846 -0.050861835 0.8426998 1.0444553 -0.53907126
-0.405869 0.015388569 -0.6147244 0.3541427 0.24001183 0.38297948 -0.41766596 0.10538072

fc2.bias f4 [64]
00000000: 2898 39bd 201d 16be 814c c3be 2a88 373d
00000010: 2e49 a73d d49f 3b3b 2247 003f 02f1 27bd
00000020: 7ead 94bc feed 94bd f7fe 98bd 7384 16be
00000030: 340d aabe 3848 07be ac5f a4bd edd4 573f
00000040: e64f a3bc f23b 9abe c4a5 a23e cb93 84bd
00000050: 0166 0cbd 53b3 143f f5f1 f5bd 8f68 afbd
00000060: e717 ecbd 3952 163f 810d f33e ae06 13be
00000070: 2d87 19bd e91b e7bd dc96 be3d c4ee e1bb
00000080: abb4 e8bd 335d d23e b0a8 46be 7958 f9bd
00000090: 583e cb3e 4b83 30bb d8eb 88be c2cf 79be
000000a0: e799 e73c 9285 293f 1763 bf3d 595b 28be
000000b0: c91c f7bd 91f9 a73d 5070 743e 1f89 28bd
000000c0: cea9 7fbd 3e59 423d 6cd8 d43c 4a66 71be
000000d0: 17f1 fa3e 4602 b63d f298 c33e 9c20 1c3f
000000e0: 3c03 84bc 49f3 9cbd 614a f0bd e219 ddbc
000000f0: 5a81 5fbe 658b 6dbe b07d 033f bcd4 52bb
-0.045311123 -0.14659548 -0.38144305 0.04480759 0.08168255 0.00286292 0.5010854 -0.041001327
-0.018149134 -0.07271956 -0.07470506 -0.14698963 -0.33213198 -0.13211143 -0.080260605 0.84309274
-0.01993556 -0.3012386 0.31767094 -0.06473502 -0.034276966 0.5808613 -0.1200904 -0.08564865
-0.115279965 0.5871921 0.4747124 -0.14358017 -0.03748243 -0.1128462 0.09306118 -0.006894918
-0.11362585 0.4108673 -0.19400287 -0.12175078 0.39696002 -0.0026933725 -0.26742435 -0.2439566
0.028271629 0.6621944 0.09345072 -0.16441096 -0.12066037 0.08201898 0.23870969 -0.041146394
-0.062417798 0.04744839 0.025982104 -0.23574176 0.49012062 0.088871524 0.38202626 0.6098726
-0.016114824 -0.076635905 -0.11732937 -0.026989881 -0.21826687 -0.23197706 0.5136366 -0.0032170257

fc3.weight f4 [4, 64]
00000000: 98d5 78bf b1dc c83c f612 84bf 32b3 f1be
00000010: e7c1 e6be 51a1 8cbf 6caa 0240 2345 293d
00000020: 098d a6bd eb85 cd3e 165e f7be 1636 93bd
00000030: 56a6 29bf 359d 14bf 3710 81bf 8106 0840
00000040: bea3 4a3d f85e 86bf d6b4 55be d227 c3be
00000050: 61cc 48bf 3600 cf3f 1b97 93bf 966b 2ebf
00000060: cf37 09bf 6b7c 5840 7899 9e3f 7356 6ebf
00000070: af81 dbbe dbcf 50bf bf15 583d 12e6 813d
00000080: 0c2b 90bf 1158 b73e ce6e d1be 6840 dcbd
00000090: f027 3e3f b91a 4ebe ed9e 26bf 901e 91be
000000a0: e24f 9abe 1ea0 a63e 6d76 a43f 9f4a 58bf
000000b0: 26c3 373d cee4 89bc 6f34 183f 9907 3abd
000000c0: d6fb 64bf 589d 08bf 6128 113d c651 4dbf
000000d0: 1584 3e40 6347 f1bf 12c8 4e3f 249e ce3f
000000e0: eb12 8cbf e28b 83bf 1b67 383b 6f22 f8be
000000f0: 7306 66bf 9127 69bf c725 db3f b480 55bf
00000100: 67a2 6bbf 24ad d03c 0c76 49bf 1f9c 13bf
00000110: 6f1b 37bf 114e 0fbf b373 0f40 5cca b0bd
00000120: 2afc e33d a422 a83e 2502 40bf 7429 06bd
00000130: fae0 b1bf 0c37 22bf 0177 00bf c568 ba3f
00000140: 4049 f6bc c662 48bf 3bd8 bd3d acfe 19bf
00000150: 1496 dabe 2f9e bd3f 9a02 61bf 350f 41bf
00000160: 1c65 34bf 45ad 5340 d268 1d3f 0a40 56bf
00000170: fcb0 33bf 767a 39bf 59c3 21bd 9225 cf3c
00000180: ccfe 6fbf 2a17 7f3e 9264 01bf cc87 ff3d
00000190: 27bb 123f df67 59bf ed99 e3be dc40 c8be
000001a0: 4e6f 88bf 2015 cdbe f058 2d40 bbed 303e
000001b0: 74d0 8abd 601a 2f3c 4aa8 85be 2718 a6bd
000001c0: fedd 3abf feac b7bf f327 8bbb 1786 4bbf
000001d0: d6f7 2e40 3458 a7be 2b36 c43e d7f4 2c40
000001e0: df61 61bf ce39 22bf 654d 1cbc b503 3abf
000001f0: 3f3e 5abf 66a5 e9be c6be f13f 1689 49bf
00000200: 6bce 99bf 070e d3bd 19e5 54bf 2ee4 b3be
00000210: 51f5 02be 11c6 d8be 9075 e13e 18c8 893c
00000220: 4c08 af3d c817 4c3e 3588 d7be 17c4 053c
00000230: 9fc5 d7be b091 2abf ab58 4bbf e903 ec3f
00000240: 93f6 f03c 7d18 4bbf 09d2 a4be a18d 33bf
00000250: 0cd0 bbbe 98f4 0340 ddc6 b7bf efa9 40bf
00000260: 4a6f 1bbf 17be 4f40 01a4 efbf d6a0 07bf
00000270: bcd8 1abf df0b 9dbe 128e 7bbd 4a71 5b3d
00000280: 5e18 a9be d829 873f 064d 0abf 7b84 0ebd
00000290: e227 943f 88ea 2abf c003 f4be ec49 49bf
000002a0: 5d94 44bf bd1b 99bf 00ac d03e ac98 f8be
000002b0: 60c5 c83c c0fa 4dbb d70d 32bf dde3 9cbd
000002c0: 05cb 01bf 207f c4bf 77d2 e9bd 4ae0 a1bf
000002d0: 0c93 3540 0785 94bf 5e01 953f f614 f03f
000002e0: 27dd 8abe b42c 37bf b178 7b3d a7c1 83be
000002f0: d7a6 0cbf 5fb7 1fbf d7d0 dd3f daed 25bf
00000300: 9230 48bf 3577 b13d 6ed1 ebbe 6db0 42bf
00000310: 9ae1 1abf da6f 2abf 0618 1a40 cbb3 afbd
00000320: 27e1 4abc 0a0f 13be 448e 22bf 8012 23bb
00000330: d5b3 bdbe dc25 52bf 9874 2dbf 98ca ff3f
00000340: 09cc dd3a 89fe 08bf 666a 8b3f 7e18 38bf
00000350: 7ce3 2bbf 11f8 aa3f a0ab 0fbf 0e82 0fbf
00000360: 6d51 40bf 9238 5540 5c93 f63f dc9a 70bf
00000370: 483a 3cbf 58d6 3bbf 9ae7 cf3d 8c26 babd
00000380: 4a56 4dbf 1eb9 bc3e aaf3 51bf a461 9bbd
00000390: fbda 8e3f 1c6d 5dbf 3c1d 6cbf d773 3cbf
000003a0: 4f0a 38bf 5519 e63e c477 c03f 525e 65bf
000003b0: 5a46 b03d 9064 f3bd 8b82 743f 7a22 2fbd
000003c0: b1f6 54bf adcf 2bbf 0399 00be 1bde cbbe
000003d0: 2709 1840 98e6 ffbe 9ebc 2c3f 32c0 9c3f
000003e0: 5b82 eabe da52 58bf 03c7 c13c 2ef4 45bf
000003f0: 6170 3cbf f560 60bf 6457 f83f 6c5b 3cbf
-0.9720092 0.024519296 -1.0318286 -0.47207028 -0.4506981 -1.098673 2.0416517 0.0413257
-0.08132369 0.40141234 -0.4831397 -0.071880504 -0.66269433 -0.5805238 -1.0083073 2.125397
0.049472563 -1.0497732 -0.20869765 -0.38116318 -0.7843686 1.6171939 -1.1530489 -0.68132913
-0.5360078 3.3825939 1.2390585 -0.9310066 -0.42872378 -0.8156716 0.052755114 0.063427106
-1.1263137 0.35809377 -0.4090485 -0.10754472 0.7427969 -0.20127381 -0.6508625 -0.2834363
-0.3013907 0.32544035 1.2848641 -0.8448886 0.044863842 -0.016832735 0.5945501 -0.045417402
-0.8944677 -0.5336509 0.0354389 -0.802029 2.9768116 -1.884991 0.80774033 1.6142011
-1.0943273 -1.0277064 0.0028137628 -0.4846377 -0.8985359 -0.91076 1.7120904 -0.8339951
-0.9204468 0.025473185 -0.7869575 -0.57660097 -0.71526235 -0.55978495 2.2414367 -0.08632347
0.11132081 0.3283893 -0.7500327 -0.032754377 -1.3896782 -0.63365245 -0.50181586 1.4563223
-0.030064225 -0.78275716 0.09269758 -0.60154223 -0.42692626 1.4813899 -0.87894595 -0.7541383
-0.7046678 3.3074505 0.6148807 -0.83691466 -0.7019193 -0.72452486 -0.03949294 0.02528647
-0.93748164 0.2491118 -0.50544083 0.12477073 0.5731682 -0.8492412 -0.44453374 -0.39111984
-1.0658967 -0.4005518 2.7085533 0.17278187 -0.067780405 0.010687441 -0.26104957 -0.081100754
-0.72994983 -1.4349668 -0.0042467057 -0.7950148 2.7338767 -0.3268448 0.38322577 2.7024438
-0.88039964 -0.6336945 -0.009539937 -0.72661906 -0.8525123 -0.45634001 1.8886344 -0.787248
-1.2016119 -0.1030541 -0.83162075 -0.35135025 -0.12788893 -0.42338613 0.44035006 0.016819045
0.085465044 0.19930947 -0.42096105 0.008164427 -0.4214296 -0.6662855 -0.7943217 1.8438693
0.02941445 -0.7933424 -0.32191494 -0.70137984 -0.36682165 2.0618038 -1.4357563 -0.752593
-0.6071669 3.2459772 -1.8721925 -0.5297979 -0.6048696 -0.3067312 -0.061414786 0.053574838
-0.33026403 1.0559645 -0.5402378 -0.034794312 1.1574671 -0.66764116 -0.4765911 -0.7862842
-0.76788884 -1.196159 0.40756226 -0.4855398 0.024508178 -0.0031429976 -0.6955237 -0.07660649
-0.5070041 -1.5351295 -0.11417096 -1.2646573 2.8371 -1.1603097 1.1641042 1.8756397
-0.2712185 -0.71552587 0.061394397 -0.25733683 -0.5494208 -0.6238918 1.7329358 -0.6481606
-0.7819911 0.08665315 -0.4605822 -0.76050454 -0.6050049 -0.6657692 2.4077163 -0.08579215
-0.012382782 -0.14361206 -0.6349833 -0.0024882853 -0.37051263 -0.8208902 -0.6775603 1.9983702
0.0016921769 -0.5351339 1.0891845 -0.7191237 -0.6714399 1.3356954 -0.56121254 -0.5605782
-0.75124246 3.3315778 1.926372 -0.93986297 -0.7352643 -0.7337394 0.10151596 -0.090893835
-0.8020979 0.36859983 -0.82012427 -0.07586983 1.1160578 -0.8649461 -0.9223211 -0.7361426
-0.7189073 0.44941202 1.503655 -0.89597046 0.086071685 -0.11884415 0.9551169 -0.04275749
-0.8318892 -0.67113763 -0.1255837 -0.3981789 2.3755586 -0.49980617 0.67475307 1.2246153
-0.45802578 -0.8450142 0.023654466 -0.77325714 -0.73608977 -0.87647945 1.940167 -0.73577

fc3.bias f4 [4]
00000000: 1456 483e bbcd 1a3e 7a3a a93e ca34 bebc
0.19564086 0.15117542 0.33052427 -0.023218531
